True
device: cuda
{'weight': 'resnet', 'one_hot': True, 'lr': 0.0005, 'optimizer': 'Adam', 'weight_decay': 1e-05, 'batch_size': 32, 'epochs': 100, 'channels': [16, 32, 64], 'drop_out': 0.2}
stack num: 20
ResNet1D_v2(
  (layers): Sequential(
    (0): ResNetBlock(
      (layers): Sequential(
        (0): ConvBlock(
          (chomp): Chomp1d()
          (layers): Sequential(
            (0): Conv1d(4, 64, kernel_size=(15,), stride=(1,), padding=(14,))
            (1): Chomp1d()
            (2): Dropout(p=0.2, inplace=False)
            (3): BatchNorm1d(64, eps=1e-05, momentum=0.1, affine=True, track_running_stats=True)
            (4): ReLU()
          )
        )
        (1): ConvBlock(
          (chomp): Chomp1d()
          (layers): Sequential(
            (0): Conv1d(64, 64, kernel_size=(19,), stride=(1,), padding=(270,), dilation=(15,))
            (1): Chomp1d()
            (2): Dropout(p=0.2, inplace=False)
            (3): BatchNorm1d(64, eps=1e-05, momentum=0.1, affine=True, track_running_stats=True)
            (4): ReLU()
          )
        )
        (2): ConvBlock(
          (chomp): Chomp1d()
          (layers): Sequential(
            (0): Conv1d(64, 64, kernel_size=(19,), stride=(1,), padding=(270,), dilation=(15,))
            (1): Chomp1d()
            (2): Dropout(p=0.2, inplace=False)
            (3): BatchNorm1d(64, eps=1e-05, momentum=0.1, affine=True, track_running_stats=True)
            (4): ReLU()
          )
        )
      )
      (residual): Sequential(
        (0): Conv1dSamePadding(4, 64, kernel_size=(1,), stride=(1,))
        (1): BatchNorm1d(64, eps=1e-05, momentum=0.1, affine=True, track_running_stats=True)
      )
    )
    (1): ResNetBlock(
      (layers): Sequential(
        (0): ConvBlock(
          (chomp): Chomp1d()
          (layers): Sequential(
            (0): Conv1d(64, 128, kernel_size=(7,), stride=(1,), padding=(6,))
            (1): Chomp1d()
            (2): Dropout(p=0.2, inplace=False)
            (3): BatchNorm1d(128, eps=1e-05, momentum=0.1, affine=True, track_running_stats=True)
            (4): ReLU()
          )
        )
        (1): ConvBlock(
          (chomp): Chomp1d()
          (layers): Sequential(
            (0): Conv1d(128, 128, kernel_size=(7,), stride=(1,), padding=(6,))
            (1): Chomp1d()
            (2): Dropout(p=0.2, inplace=False)
            (3): BatchNorm1d(128, eps=1e-05, momentum=0.1, affine=True, track_running_stats=True)
            (4): ReLU()
          )
        )
        (2): ConvBlock(
          (chomp): Chomp1d()
          (layers): Sequential(
            (0): Conv1d(128, 128, kernel_size=(7,), stride=(1,), padding=(6,))
            (1): Chomp1d()
            (2): Dropout(p=0.2, inplace=False)
            (3): BatchNorm1d(128, eps=1e-05, momentum=0.1, affine=True, track_running_stats=True)
            (4): ReLU()
          )
        )
      )
      (residual): Sequential(
        (0): Conv1dSamePadding(64, 128, kernel_size=(1,), stride=(1,))
        (1): BatchNorm1d(128, eps=1e-05, momentum=0.1, affine=True, track_running_stats=True)
      )
    )
    (2): ResNetBlock(
      (layers): Sequential(
        (0): ConvBlock(
          (chomp): Chomp1d()
          (layers): Sequential(
            (0): Conv1d(128, 128, kernel_size=(19,), stride=(1,), padding=(270,), dilation=(15,))
            (1): Chomp1d()
            (2): Dropout(p=0.2, inplace=False)
            (3): BatchNorm1d(128, eps=1e-05, momentum=0.1, affine=True, track_running_stats=True)
            (4): ReLU()
          )
        )
        (1): ConvBlock(
          (chomp): Chomp1d()
          (layers): Sequential(
            (0): Conv1d(128, 128, kernel_size=(19,), stride=(1,), padding=(270,), dilation=(15,))
            (1): Chomp1d()
            (2): Dropout(p=0.2, inplace=False)
            (3): BatchNorm1d(128, eps=1e-05, momentum=0.1, affine=True, track_running_stats=True)
            (4): ReLU()
          )
        )
        (2): ConvBlock(
          (chomp): Chomp1d()
          (layers): Sequential(
            (0): Conv1d(128, 128, kernel_size=(19,), stride=(1,), padding=(270,), dilation=(15,))
            (1): Chomp1d()
            (2): Dropout(p=0.2, inplace=False)
            (3): BatchNorm1d(128, eps=1e-05, momentum=0.1, affine=True, track_running_stats=True)
            (4): ReLU()
          )
        )
      )
    )
  )
  (norm): LayerNorm((768,), eps=1e-05, elementwise_affine=True)
  (conv): Conv1d(128, 768, kernel_size=(11,), stride=(2,), dilation=(3,))
  (linear): Linear(in_features=128, out_features=768, bias=True)
  (final): Linear(in_features=768, out_features=36, bias=True)
)
x: torch.Size([32, 4, 1000])
y: torch.Size([32, 36])

------- Start Training --------
[train full 0 0.000500 ] time elapsed: 51.0792 	train loss: 0.8271 	val loss: 0.8597 	val score: 0.3584 	best val score: 0.3584
[train full 1 0.000500 ] time elapsed: 53.1737 	train loss: 0.8057 	val loss: 0.8810 	val score: 0.3393 	best val score: 0.3393
[train full 2 0.000500 ] time elapsed: 51.7245 	train loss: 0.7824 	val loss: 0.9161 	val score: 0.3261 	best val score: 0.3261
…
