True
device: cuda
{'weight': 'unet', 'one_hot': False, 'lr': 0.01, 'batch_size': 256, 'epochs': 100, 'channels': [16, 32, 64], 'drop_out': 0.2}
Encoder_v3(
  (model): Sequential(
    (0): Conv1d(768, 16, kernel_size=(31,), stride=(1,), padding=(15,))
    (1): ResnetBlock(
      (norm1): GroupNorm(16, 16, eps=1e-06, affine=True)
      (conv1): Conv1d(16, 32, kernel_size=(9,), stride=(1,), padding=(4,))
      (norm2): GroupNorm(16, 32, eps=1e-06, affine=True)
      (dropout): Dropout(p=0.2, inplace=False)
      (conv2): Conv1d(32, 32, kernel_size=(3,), stride=(1,), padding=(1,))
      (nin_shortcut): Conv1d(16, 32, kernel_size=(1,), stride=(1,))
    )
    (2): ResnetBlock(
      (norm1): GroupNorm(16, 32, eps=1e-06, affine=True)
      (conv1): Conv1d(32, 32, kernel_size=(3,), stride=(1,), padding=(1,))
      (norm2): GroupNorm(16, 32, eps=1e-06, affine=True)
      (dropout): Dropout(p=0.2, inplace=False)
      (conv2): Conv1d(32, 32, kernel_size=(3,), stride=(1,), padding=(1,))
    )
    (3): ResnetBlock(
      (norm1): GroupNorm(16, 32, eps=1e-06, affine=True)
      (conv1): Conv1d(32, 64, kernel_size=(3,), stride=(1,), padding=(1,))
      (norm2): GroupNorm(16, 64, eps=1e-06, affine=True)
      (dropout): Dropout(p=0.2, inplace=False)
      (conv2): Conv1d(64, 64, kernel_size=(3,), stride=(1,), padding=(1,))
      (nin_shortcut): Conv1d(32, 64, kernel_size=(1,), stride=(1,))
    )
    (4): ResnetBlock(
      (norm1): GroupNorm(16, 64, eps=1e-06, affine=True)
      (conv1): Conv1d(64, 64, kernel_size=(3,), stride=(1,), padding=(1,))
      (norm2): GroupNorm(16, 64, eps=1e-06, affine=True)
      (dropout): Dropout(p=0.2, inplace=False)
      (conv2): Conv1d(64, 64, kernel_size=(3,), stride=(1,), padding=(1,))
    )
    (5): ResnetBlock(
      (norm1): GroupNorm(16, 64, eps=1e-06, affine=True)
      (conv1): Conv1d(64, 64, kernel_size=(3,), stride=(1,), padding=(1,))
      (norm2): GroupNorm(16, 64, eps=1e-06, affine=True)
      (dropout): Dropout(p=0.2, inplace=False)
      (conv2): Conv1d(64, 64, kernel_size=(3,), stride=(1,), padding=(1,))
    )
    (6): ResnetBlock(
      (norm1): GroupNorm(16, 64, eps=1e-06, affine=True)
      (conv1): Conv1d(64, 64, kernel_size=(3,), stride=(1,), padding=(1,))
      (norm2): GroupNorm(16, 64, eps=1e-06, affine=True)
      (dropout): Dropout(p=0.2, inplace=False)
      (conv2): Conv1d(64, 64, kernel_size=(3,), stride=(1,), padding=(1,))
    )
    (7): GroupNorm(16, 64, eps=1e-06, affine=True)
    (8): Swish()
    (9): Conv1d(64, 128, kernel_size=(3,), stride=(1,), padding=(1,))
  )
  (final): Linear(in_features=128000, out_features=36, bias=True)
  (dnaemb): Embedding(5, 768)
)
x: torch.Size([256, 1, 1000])
y: torch.Size([256, 36])

------- Start Training --------
458: torch.Size([256, 36])
tensor([[-0.3269, -0.0106,  0.1619,  ...,  0.1162, -0.0409,  0.4378],
        [-0.4624, -0.4405,  0.1387,  ..., -0.1695,  0.0499,  0.3526],
        [ 0.0035,  0.0648, -0.0178,  ...,  0.1827, -0.0357,  0.3682],
        ...,
        [-0.3024, -0.1259,  0.1273,  ..., -0.0650, -0.2076, -0.0030],
…
